KIT/best_model.pth (torch, 72098 bytes, 11 tensors)

net.0.weight f4 [64, 2]
000000 a3 94 cf 3b bd db af be 59 58 ad 3b d1 60 bb be
       0.0063348575 -0.34347335 0.005290073 -0.36597303
000010 7d 13 1f bf c1 ec 10 bf 7b 5a 20 3f 29 3f b5 be
       -0.6213911 -0.5661126 0.6263806 -0.3539975
000020 81 80 31 bf 76 c5 33 3f b1 31 d1 3e d2 13 8b 3d
       -0.69336706 0.70223176 0.40858224 0.0679089
000030 4b 5e 19 bf 8e 1e a4 be 44 36 eb be d0 1d bf 3e
       -0.59909505 -0.3205456 -0.4593984 0.37327433
000040 5a 1c eb 3d 79 bf 78 3e 06 5b 26 be a1 8a f7 be
       0.11480017 0.24291791 -0.1624566 -0.48347953
000050 99 a6 01 3e bf 0c bc 3e d9 7c 09 bf ca 2d 5b 3f
       0.12661208 0.36728474 -0.5370613 0.85616744
000060 80 14 e5 be e0 61 ca 3e 05 2b 2a 3e f3 6a ee 3e
       -0.44742203 0.39527798 0.16617973 0.4656597
000070 ce ae 32 3f 87 40 f6 3d 20 d8 b5 be 12 4a 4b 3e
       0.6979798 0.12024026 -0.35516453 0.19852474
000080 ae dc 30 3f f6 c3 2a bd 03 c2 19 3f 3f c2 2e bf
       0.6908673 -0.04169079 0.60061663 -0.68265146
000090 20 2c f8 be 36 fe 98 3e 94 43 f8 be a8 dd b2 3c
       -0.48471165 0.29881448 -0.48489058 0.02183421
0000a0 6c 72 05 3f 0d 16 ca be 49 91 46 3f 50 b1 36 3f
       0.5212772 -0.39469948 0.7756544 0.7136431
0000b0 0a c4 2b 3f 2a e4 35 bf 73 66 81 be c9 74 ee 3d
       0.67096007 -0.71051276 -0.25273475 0.11643369
0000c0 e6 ba bf 3e c8 0e 07 bf 88 ed c0 3e 6d 79 2a bf
       0.3744728 -0.5275693 0.37681222 -0.6659153
0000d0 a2 e5 e3 be e2 82 9a 3d 6c 08 a8 be fe af 62 3e
       -0.44511133 0.07544495 -0.32818925 0.22137448
0000e0 fc 6b 76 3e 0e a4 12 3f 59 02 ce be 93 db 20 3f
       0.2406463 0.5728158 -0.40236166 0.62835044
0000f0 14 ee 2a bf 3b 42 00 bf 4f 70 18 3f 1d 7f 8f 3e
       -0.6676953 -0.5010106 0.5954637 0.28026667
000100 4b 6b a5 be 62 5f 67 3d b1 d5 85 be 8d da 00 bf
       -0.3230842 0.05648745 -0.26139596 -0.5033348
000110 49 87 1a bf 96 83 37 3e 01 4c 49 3e d6 0b 00 bf
       -0.6036268 0.1792129 0.196579 -0.5001806
000120 35 1e a0 3e 9e 8c e7 bd 08 54 c6 be 10 e4 e0 3e
       0.31273046 -0.113061175 -0.38735986 0.43923998
000130 68 d9 4b 3e 6d cb 93 be 7c a4 a4 3e ee cf 28 3f
       0.19907153 -0.2886614 0.32156742 0.65942276
000140 91 e3 2f 3f ab 3f 36 bf 2f e0 27 3e 41 04 90 be
       0.68706614 -0.711909 0.16394113 -0.28128245
000150 87 8f 18 3e 13 82 92 3e 22 de 39 3f 73 6d 07 be
       0.14898501 0.28614864 0.7260457 -0.13225345
000160 34 19 64 be f4 95 11 bf 77 72 0b bf b6 7b 14 bf
       -0.22275239 -0.56869435 -0.54471534 -0.5800127
000170 23 47 b8 be fb ac bf 3e ea 66 f5 3e b6 8d 99 3e
       -0.35991773 0.3743666 0.4793008 0.2999093
000180 39 94 e3 be 28 99 24 3e 64 68 d3 3e cf d2 d9 bd
       -0.44449022 0.1607405 0.4129058 -0.10635912
000190 75 21 54 3e 80 8f 2c 3f 7f 18 22 bf 81 0b 24 3e
       0.20715888 0.67406464 -0.6331863 0.16020013
0001a0 97 8a 59 be 68 93 c4 be 61 73 07 3e fd 1b b8 be
       -0.21244274 -0.38393712 0.13227607 -0.35958853
0001b0 bc 75 47 be f6 36 8e 3e 62 73 15 bf 87 2b 07 3f
       -0.19478506 0.27776307 -0.58379185 0.5280079
0001c0 ea 2d 8a 3e c5 cd 9d be e6 5f 10 3f 07 89 25 3f
       0.26988155 -0.30821052 0.5639633 0.6466221
0001d0 62 1e 0e 3f 1f 22 2b bf 96 71 28 3f 12 9e bd be
       0.5551511 -0.6684894 0.6579832 -0.3703466
0001e0 cf 1b c9 3d 2d 72 03 3f 7d ba ea 3d e4 4e 36 bf
       0.09819757 0.51346093 0.11461351 -0.7121413
0001f0 eb 76 26 bf fa a9 8c 3e 80 c9 a9 3e ad bd e7 be
       -0.65025204 0.27473432 0.33161545 -0.452619

net.0.bias f4 [64]
000000 3c 0a 30 bf 06 fb 1b bf 1e a6 a2 be 47 fe 22 3e
       -0.68765616 -0.60929906 -0.31767362 0.15917312
000010 7e 43 2b 3f c9 aa 14 bf 87 b2 36 3f b1 7c f1 3e
       0.6689986 -0.580731 0.7136616 0.47165444
000020 1c ad 8b be 3a d1 df be ac c3 9b 3e de eb 77 be
       -0.2728051 -0.43714315 0.30422723 -0.2421107
000030 e0 d6 f3 3e 19 86 be be 95 4d 49 3f 60 4f fd be
       0.47624874 -0.37211683 0.78634006 -0.4947462
000040 21 63 97 be fe 09 ea 3e 20 2f e6 3e 21 3f c3 3d
       -0.29567817 0.45710748 0.4495783 0.09533525
000050 b8 6b 45 bf bc 87 83 3e 36 5f ae 3e 09 0f 46 3f
       -0.7711749 0.25689495 0.34057015 0.7736669
000060 bd 6f 36 3f ea 5f b6 3c 38 80 0c bf 84 a0 96 be
       0.7126425 0.022262532 -0.54883146 -0.2941934
000070 26 f3 fc 3e 4f a6 48 3f 5c bf 2e 3e 30 22 8d 3e
       0.49404258 0.78378767 0.17065185 0.27565145
000080 f0 b8 2e 3f bd 1e a4 be 2b 9a c6 be bb 46 ee be
       0.6825094 -0.320547 -0.38789496 -0.46538338
000090 d4 ff 14 3f 30 96 09 bf 5c e9 00 bf 96 c5 19 3f
       0.5820286 -0.5374479 -0.5035608 0.6006712
0000a0 b6 b0 85 bd 2e 04 ea 3e 19 82 39 bf 00 82 10 3f
       -0.065278456 0.45706314 -0.7246414 0.56448364
0000b0 81 c6 9e be 65 1c 12 3f 58 cf 32 3f d6 88 a5 be
       -0.3101082 0.57074577 0.6984763 -0.3233096
0000c0 d5 e2 eb 3e a4 c1 33 3f 6c 0b ef be 6c 64 09 bf
       0.46071497 0.7021735 -0.46688402 -0.53668857
0000d0 54 1f b7 be 37 f2 f4 3e 4f 7a 2b bf d5 81 2c 3f
       -0.3576609 0.47841045 -0.66983503 0.6738561
0000e0 77 f2 b3 be 75 d9 ab 3e 0a 42 d8 bc 7b 8d 1b bd
       -0.35145923 0.33564344 -0.026398677 -0.037976723
0000f0 c0 8f fd be a6 a5 55 3f c6 b0 27 3f f6 ee c4 be
       -0.49523735 0.83455884 0.6550411 -0.38463563

net.2.weight f4 [64, 64]
000000 1a e6 20 3e 05 e6 58 3e ba a8 c4 bd 73 c9 56 bc
       0.15712777 0.21181495 -0.096024945 -0.013109553
000010 4d b0 8b be b4 79 95 bb bf 88 40 bd 10 d2 42 be
       -0.27282944 -0.0045616273 -0.04700541 -0.19025445
000020 68 ee 10 3d e5 e0 de 3d e7 a8 26 be cd 0b 27 be
       0.035383612 0.10882739 -0.16275369 -0.16313095
000030 40 32 99 bd c6 c3 26 3e a0 bc 51 bd c0 2f 3b 3e
       -0.074802876 0.16285619 -0.051205277 0.18279934
000040 05 1c 4a 3a 03 bf ca bd 63 cf c0 bd 6b 92 6e be
       0.0007709864 -0.09899714 -0.09414556 -0.23298042
000050 6c 74 4e 3e bf 05 c1 bd fc 47 8e be 0f 01 54 be
       0.20161599 -0.09424924 -0.27789295 -0.20703529
000060 13 82 2a be 06 9d 76 be ef 0b 47 3e ea 98 1a 3e
       -0.16651182 -0.24083337 0.19438146 0.15097395
000070 9d 7a c3 bc 6e 40 5d bd c1 ec e1 bd 85 c9 25 be
       -0.023862178 -0.054016523 -0.11031485 -0.16190155
000080 93 d2 e7 bb c0 1c d7 bc 18 ba 4b bc 84 04 6f 3d
       -0.007074663 -0.026258826 -0.012434505 0.058353916
000090 62 e1 3e be 4e 2a 1f 3e 6a c2 0f 3e 7c 94 2b be
       -0.18640664 0.15543482 0.14039007 -0.16755861
0000a0 57 29 96 be e8 b0 01 be 88 6a 10 bc 55 7b 10 be
       -0.29328415 -0.1266514 -0.0088144615 -0.14109547
0000b0 13 ee be bd 06 b3 1e be 9f 1d 59 be 2a 1d 31 3e
       -0.09322753 -0.1549798 -0.21202706 0.17296281
0000c0 6a 9d 15 be d9 70 28 bd 8c e4 8e bd fb 31 8d 3d
       -0.1461083 -0.041123245 -0.069771856 0.06894299
0000d0 0a 0d 25 bd 30 60 34 be 6a 80 34 3e 1c 65 ce bd
       -0.04029564 -0.17614818 0.17627111 -0.10077879
0000e0 e9 80 70 3d 82 3a 2f be 15 64 0c be 80 c6 c2 bd
       0.05871669 -0.17112163 -0.13710053 -0.09510517
0000f0 5e 5f bd 3d d9 4a fd bb 03 95 17 be 2f 60 d9 3d
       0.092467055 -0.00772987 -0.14802937 0.10614049
000100 de 05 52 bd 2b 80 21 3c 3c 4b 68 be 9d 89 16 3e
       -0.051275127 0.009857218 -0.2268495 0.14700933
000110 1c b0 45 bd 5f d6 2f be 02 ad e7 bb 4b 76 2b 3c
       -0.048263654 -0.1717162 -0.0070701847 0.010465215
000120 02 12 f4 bd f1 b9 fd bc ca ac 0f 3e 75 ff a2 be
       -0.11917497 -0.030972453 0.14030758 -0.31835523
000130 d4 4e b9 3d 28 8e 42 be 6b a2 ff 3c 1a 37 b0 bd
       0.090482384 -0.18999541 0.031205377 -0.0860426
000140 fc b9 70 be c9 c7 61 bd 14 d8 22 3c 46 c1 3d bd
       -0.23508447 -0.05512217 0.009939212 -0.046326898
000150 a3 fe de bd ba 16 4b 3c e9 d1 28 3e eb 37 47 3e
       -0.10888412 0.012395555 0.16486324 0.19454925
000160 94 f1 80 3d 0f bf c6 bd 66 f9 0a be 2d 26 37 bd
       0.06296077 -0.0970441 -0.135717 -0.04471414
000170 90 43 b0 3d 75 49 37 3e 70 4c 15 3d 47 d4 67 3c
       0.086066365 0.17899115 0.03644985 0.014149732
000180 d8 dd b9 3c d0 cd da bd 59 a9 64 bd 1b 6b 4f be
       0.022688791 -0.10683787 -0.055825565 -0.20255701
000190 9e 7a 0c 3e 42 7d 5c be 08 a6 fe bd f7 05 08 3e
       0.1371865 -0.21532157 -0.12434012 0.13283525
0001a0 54 8c e8 3c 83 b9 08 bd 0e 86 27 be a0 e1 91 3d
       0.028387226 -0.033380043 -0.16359732 0.07123113
0001b0 83 5f b3 bd 90 7b 97 3b 0f 65 43 3e 7d 2f 2a be
       -0.08758452 0.004622884 0.1908152 -0.16619678
0001c0 44 5c 00 3e 50 e7 dd 3c 95 05 2f be d4 09 79 bd
       0.12535197 0.027087837 -0.17091973 -0.06080039
0001d0 98 3f 4a be d7 54 3f 3d c1 f8 3f be 25 14 3e 3e
       -0.19750822 0.04671177 -0.18747236 0.18562372
0001e0 ef ab eb 3c ef 76 6f bd e0 50 3c 3d c0 6f 28 3d
       0.028768508 -0.058463033 0.045975566 0.041122198
0001f0 40 79 48 be db 8d 29 3e 51 13 3b 3e 22 e7 2c be
       -0.19577503 0.1655802 0.18269087 -0.16885045
000200 37 62 29 bd 57 b4 9d bd 7c 34 7b be 15 66 f2 3c
       -0.04135343 -0.07700413 -0.2453174 0.029589692
000210 89 4b 11 3e c1 37 ad bd de 02 a0 3d eb 0f b5 bb
       0.1418897 -0.084579 0.07813047 -0.005525579
000220 5f 1b c1 bd 15 aa 7c be 8d ac 3b 3e 46 90 5a be
       -0.09429049 -0.24674256 0.18327542 -0.21344098
000230 f2 69 bc 3d 5f 69 58 be ba 7e b3 3d c3 4c 16 be
       0.09199895 -0.21133946 0.087644055 -0.1467772
000240 2f 47 12 bd b7 eb 15 3d a2 66 2b 3e 76 e6 2b 3e
       -0.035712417 0.03660175 0.1673837 0.16787133
000250 4a 92 7c bd 08 cb bf 3d 1e 9a 42 3e 4a 8d 66 bb
       -0.06166295 0.09364897 0.19004104 -0.003517943
000260 56 bc 2d 3e 13 6e 21 3d 83 60 77 be 75 b0 28 be
       0.16966376 0.039411616 -0.2415791 -0.16473563
000270 56 db c9 3d a1 83 9a 3d 56 f3 96 3c 6d 57 01 3e
       0.09856288 0.075446375 0.018426578 0.12631007
000280 92 4f 4a 3e 64 34 22 be 40 12 29 bd 39 e9 14 bd
       0.19756916 -0.15840298 -0.04127717 -0.03635523
000290 0a 7f 41 3d c7 b5 c9 bd 5b f5 c6 bd 1c 1c 57 3e
       0.047240295 -0.098491244 -0.097147666 0.21006817
0002a0 76 81 38 3d b9 e5 5f 3e d5 f5 93 bd a7 84 45 3d
       0.04504534 0.21864976 -0.07224623 0.04822221
0002b0 37 c4 81 be 05 56 1c 3e 43 fa 22 3e 98 3f 01 be
       -0.25345013 0.15267189 0.1591578 -0.12621915
0002c0 8d fd 71 3d fa 24 0a 3e 63 2c 3b bd 2c b2 88 bd
       0.059079695 0.13490668 -0.045696627 -0.066746086
0002d0 f7 2d 65 be b6 fa c6 3d 2d ea ca bd e8 d8 8e 3d
       -0.22380815 0.09715788 -0.09907947 0.06974965
0002e0 aa 34 5e bd 10 85 16 3e 1d 1b 96 bd 72 dc 43 3c
       -0.054249443 0.14699197 -0.0732939 0.011954414
0002f0 3e 9b 21 be d2 0a b9 3d ab 96 85 bc 48 5f 7f be
       -0.15781876 0.09035267 -0.016307196 -0.2493869
000300 40 e6 72 be 46 f7 7e be 07 01 87 be 6e 3a 96 3d
       -0.23720646 -0.24899015 -0.2636797 0.07335363
000310 20 bf 9f 3d e2 80 66 be 98 7f 65 3e 38 5d 07 3e
       0.07800126 -0.22510102 0.22411954 0.13219154
000320 f9 7d f6 bd 40 1a c0 bd 74 8e 5a 3c 56 7c 73 be
       -0.12035746 -0.09380007 0.0133396275 -0.23777899
000330 7d 78 17 bc fb 27 c4 bd 31 4e 07 3e 24 31 15 be
       -0.009245035 -0.09577938 0.13213421 -0.14569527
000340 4c fd 27 bd 11 9b fe 3d 2e 3b f3 3d 65 9b aa 3d
       -0.041013047 0.1243192 0.11876522 0.083304204
000350 77 be 07 be b1 0a a8 3d 3c 5a 4a 3d 5b 4a c7 3d
       -0.1325625 0.08205164 0.04940246 0.09730979
000360 67 ed 00 3e e7 24 24 bd 22 a4 84 bd e0 24 12 bd
       0.12590562 -0.040074255 -0.06476618 -0.035679698
000370 84 a5 73 bc 1d 95 86 3d 88 3d c6 3d 7a 3a 03 3d
       -0.014871005 0.0657141 0.09679705 0.03203819
000380 dd 20 a0 3d d4 5c cb bd c4 91 05 be cb 40 21 be
       0.07818768 -0.09929815 -0.13043886 -0.15747373
000390 32 33 4a 3b 56 1f 13 be e7 0d 6b be ae 82 33 3e
       0.0030853269 -0.14367422 -0.22954522 0.17530319
0003a0 4c 5f 0e be 41 41 88 3c 96 f5 da bd 66 a1 f1 3d
       -0.1390354 0.016632678 -0.10691373 0.117983624
0003b0 4d 07 46 be ae d0 09 3e c5 92 43 3d cb 50 63 be
       -0.19338723 0.13458511 0.047747392 -0.22198789
0003c0 09 3d 83 3d 70 d7 bf 3d c0 b9 2c be c1 b6 32 be
       0.06408126 0.09367263 -0.16867733 -0.17452528
0003d0 ec a0 bb bd 1d 92 18 3e 90 f3 ec bd da 0a 31 3e
       -0.09161553 0.14899488 -0.11569893 0.17289296
0003e0 e6 0e 3c be 68 65 81 3c ee 60 0d be a6 05 a7 bd
       -0.18365058 0.015795425 -0.13806507 -0.08155374
0003f0 76 7f 39 be f5 08 ac 3d 09 6a bc 3d b3 81 34 be
       -0.18115029 0.08400146 0.09199912 -0.17627601

net.2.bias f4 [64]
000000 7f 8d 4c be 71 d6 15 3e be bf 51 3d 69 ee 10 3d
       -0.19975851 0.14632584 0.05120825 0.035383616
000010 d8 24 96 3d 4e 24 4a 3d 39 6e 15 bc 75 64 07 3d
       0.07331246 0.04935103 -0.009120517 0.033054788
000020 61 81 1f 3d 40 80 03 3e 06 10 30 be e1 93 d5 3d
       0.038941745 0.12841892 -0.17193612 0.10428596
000030 5c 86 54 be 67 b1 42 be c3 17 28 3e c6 7a ba 3d
       -0.20754379 -0.19012986 0.16415314 0.091054484
000040 b8 a9 39 be 58 77 75 3d b9 23 3b 3c 68 8b 36 be
       -0.18131149 0.05992827 0.011422091 -0.17826617
000050 26 ce 22 3e 43 f3 58 be 5d bb 39 be 1a a7 0d 3e
       0.15898952 -0.21186547 -0.1813788 0.13833275
000060 73 cf e9 3d 10 e9 2c 3b ea f7 2d 3e 86 3f 63 3e
       0.11416521 0.0026384033 0.16989103 0.22192201
000070 d4 ef 59 be ba 70 7d 3c b2 8f 4d 3e 59 7e e4 3d
       -0.21282893 0.015468771 0.20074347 0.111569114
000080 1f b3 23 3e 80 b2 c2 bd 15 84 cc bd 93 20 d9 bd
       0.15986298 -0.095067024 -0.0998613 -0.10601916
000090 f9 a4 ee bd 67 fb 0c 3e 09 39 60 3e 9c 27 f7 3c
       -0.1165256 0.13767777 0.21896757 0.030170254
0000a0 3e 35 ef 3d 83 b8 80 3d 20 5f 9a bd 2b 45 10 bd
       0.11680077 0.06285193 -0.07537675 -0.035222214
0000b0 f5 d5 62 3e 4c c4 20 3e 72 91 35 be 91 ef 34 3e
       0.2215193 0.15699881 -0.17731264 0.17669512
0000c0 b6 f5 90 bd 3d b1 e3 bb e0 df 27 be f9 c4 a5 bd
       -0.07078116 -0.0069486187 -0.16393995 -0.0809421
0000d0 ac f0 3d 3e 91 be 0e be 10 12 35 be cb 32 4e 3e
       0.1854884 -0.13939883 -0.17682672 0.20136563
0000e0 0d d6 fa 3b bf 2a 63 3e 87 77 45 be 61 8e 59 3e
       0.0076549114 0.22184275 -0.19283877 0.2124572
0000f0 72 14 dd bd 78 dc 65 be a6 c3 10 be 22 66 ed bc
       -0.10794915 -0.22447383 -0.14137134 -0.028979365

net.4.weight f4 [64, 64]
000000 a5 c0 c7 bd b9 42 ce bd ec b5 6c 3d c9 90 94 3c
       -0.09753541 -0.1007132 0.05779068 0.018135445
000010 3c 0d 27 bd 4e 08 17 3b a0 26 b6 3d 40 00 bc bd
       -0.040784106 0.0023045721 0.08894086 -0.09179735
000020 e2 97 ed bd 80 ee 20 be 5c f0 c7 3d 5a c1 9d bd
       -0.11601235 -0.1571598 0.09762642 -0.077028945
000030 4f 41 17 3d f7 53 cf 3d a3 65 56 3d 97 53 de bd
       0.036927518 0.10123437 0.052343022 -0.10855787
000040 80 88 43 bd 78 9c 56 3d c4 d8 93 3d b9 b0 b7 bd
       -0.0477376 0.052395314 0.07219079 -0.08969254
000050 af b8 f6 bd 95 01 21 3d 53 67 6b bd 29 a1 48 bd
       -0.12046944 0.03930815 -0.057471585 -0.04898182
000060 61 3a c8 3c c8 38 59 3d 02 dc f1 38 25 b4 07 3c
       0.0244419 0.053032666 0.00011532755 0.008282696
000070 ab 9e d5 bc 14 2d 87 3c 6f b6 91 3d 39 d2 35 3c
       -0.026076635 0.016500987 0.071148746 0.011097484
000080 49 e5 9f bd d8 45 f7 bb 1c cb ca 3d d0 e3 8c 3d
       -0.078074045 -0.007546168 0.09902021 0.06879389
000090 75 e4 e3 3d e6 e2 5f bc 76 20 3a 3d a0 dd 02 be
       0.11127559 -0.013664937 0.045441113 -0.12779856
0000a0 79 32 fa bd 12 73 2e bd 7a 94 d1 3d 3e c1 c1 3a
       -0.12216658 -0.04259021 0.10233398 0.0014782322
0000b0 e3 1c 53 39 c5 56 88 3d ac 23 75 3d fd a1 61 3d
       0.00020133289 0.06657175 0.059848472 0.055086125
0000c0 be ab cb bd b4 cd bb 3d ac 51 38 3d a8 51 f3 3c
       -0.099448666 0.09170094 0.044999763 0.029702023
0000d0 f1 5e 07 be cb 38 99 3d d9 74 75 be 0b f0 03 bd
       -0.13219811 0.074815355 -0.23970355 -0.032211345
0000e0 19 f5 8b bd e3 1e 4c bd 7d 8f ad 3d bb 9b 99 bc
       -0.06833858 -0.049834143 0.08474634 -0.018751016
0000f0 be 32 a7 bd 54 47 57 3d ac b0 31 bb bb 5f c1 3d
       -0.08163975 0.05255826 -0.0027113361 0.09442087
000100 b0 c7 82 bd dc a6 44 3c ea 09 30 3e 80 c9 55 3e
       -0.063857436 0.012002673 0.17191282 0.20877647
000110 31 c3 94 3d 75 de 43 3e 92 58 12 bc e6 e7 38 3e
       0.07263792 0.1912783 -0.00893225 0.18057212
000120 25 d4 1d 3e f6 ea 74 3d 9e 04 6d be 87 fd 9b 3d
       0.15412958 0.05979439 -0.23146293 0.07616716
000130 b3 f1 1a be f6 94 10 bd 38 ae 1d 3d da a8 1d 3e
       -0.15131263 -0.03529831 0.038496226 0.15396443
000140 9d c3 a0 bd 75 c5 70 3e d8 28 b9 3c 57 58 5d be
       -0.0784981 0.23512824 0.022602484 -0.2161573
000150 ff 43 44 3e ea ec 8c bc 55 4f 39 be 1e 4d fd 3d
       0.19166563 -0.017202813 -0.18096669 0.123682246
000160 3f b4 17 3e 08 a6 97 bd d3 c6 21 3e 52 98 33 3e
       0.14814852 -0.07404715 0.15798502 0.17538574
000170 3e 4a 9b bd 8c 5d b1 bd 4c 57 4b 3e 38 99 83 3d
       -0.0758252 -0.08660421 0.1985752 0.064257085
000180 54 51 4d 3e 41 09 68 be 5b be 02 be 29 3b 64 bc
       0.20050555 -0.2265978 -0.12767927 -0.0139301205
000190 bc 52 3d bd 41 63 5e 3e ec 17 8e 3d 00 da 29 3d
       -0.04622148 0.2171755 0.069381565 0.041467667
0001a0 76 0d d0 3d 20 21 5a 3e e1 dc 5f be b2 1d a5 bd
       0.101588175 0.21301699 -0.21861602 -0.080623046
0001b0 b8 f2 c2 3d ad 0c 8e 3d 48 6f 12 be bd b0 12 3d
       0.09518951 0.069360115 -0.14300263 0.035813082
0001c0 ec 94 36 bd 8a ee 37 be c1 f6 61 be 42 10 d9 bd
       -0.044575617 -0.17962089 -0.22066785 -0.10598804
0001d0 1e e6 a2 3b 51 91 b0 bd d7 da 0f be a4 1a 70 3d
       0.0049712798 -0.08621467 -0.14048325 0.058619156
0001e0 ad c8 0a 3e 64 c2 08 3e 5c 5f 6e be bc d9 96 3d
       0.13553114 0.13355404 -0.23278564 0.07365748
0001f0 a1 e6 70 be 6a 94 3e be 65 91 85 bd 3c 5b 15 bd
       -0.23525478 -0.18611303 -0.065218724 -0.03646396
000200 c4 3f ef bd 64 98 cb 3d f8 88 59 3e 19 7f f1 3d
       -0.11682084 0.099411756 0.21243656 0.1179182
000210 1c ac 9f bc 0d c1 81 3d d1 f8 54 be 31 f4 ee 3c
       -0.019491248 0.0633565 -0.20798041 0.029169174
000220 4b 5c bf bc 88 57 19 3e 57 4c 34 bd 26 a0 25 3e
       -0.023359438 0.14974797 -0.044018116 0.16174373
000230 b6 9b fb bb a9 6d 2d 3c 8e 9f 80 3d ea 41 d0 3d
       -0.0076784743 0.010585227 0.06280433 0.10168822
000240 55 94 4e bd 36 5f a2 3d 4e 27 f1 3d d8 8c 3e be
       -0.05043443 0.07928316 0.11775075 -0.18608415
000250 48 49 a4 3d 9d d3 25 bd 22 86 3d be 86 86 2d 3d
       0.0802179 -0.040485013 -0.18508199 0.04236462
000260 75 ee 55 3e da fd ab bd b9 9a c5 3d df 96 65 3d
       0.20891745 -0.08398028 0.09648652 0.056052085
000270 03 5c 23 be fb 05 fe bd 91 11 33 3e fa db 4d 3e
       -0.15953068 -0.124034844 0.1748717 0.20103446
000280 92 9e fd 3d 34 78 6b be de ff 00 be 0a 39 28 bc
       0.123837605 -0.22995073 -0.12597606 -0.010267505
000290 b7 d5 f9 3a 45 f4 16 3e a7 7a 81 3d 08 90 01 3e
       0.0019060884 0.14741619 0.06322222 0.126526
0002a0 f4 23 33 3d b0 21 5b 3e 04 36 2a be 59 f5 cb bc
       0.04373546 0.2139957 -0.16622168 -0.024897264
0002b0 79 48 89 3c c3 85 20 3e 8f 4e 22 be 25 ba f2 3d
       0.01675819 0.15676026 -0.1585028 0.118519105
0002c0 56 5b 46 be 3b 5f 28 be 98 4c 10 be d8 bb 59 be
       -0.1937078 -0.16442578 -0.14091718 -0.21263063
0002d0 64 c8 41 3e 29 0a 05 be 1f 29 a5 be 34 3d ce 3d
       0.18924099 -0.12992157 -0.32257935 0.10070267
0002e0 ba 5a 1d 3d b7 ea 92 3d 8b af f1 bd a8 61 68 3e
       0.0384166 0.071736746 -0.1180106 0.22693503
0002f0 de c7 18 bd db c1 35 be 44 0f 92 bd f9 42 cf bc
       -0.037299983 -0.17749731 -0.07131818 -0.02530049
000300 4a a6 05 3e 62 3d 74 3d 2f a2 91 bd 46 25 be 3c
       0.13051715 0.05962885 -0.07111012 0.023211133
000310 54 76 d0 bd a5 7b 01 bd 64 c6 5f bd 7b 39 01 be
       -0.10178819 -0.031612057 -0.05463256 -0.12619583
000320 81 16 47 bd 45 b5 1d 3d f6 16 e4 3d 1d 27 ef 3c
       -0.048605446 0.03850295 0.11137192 0.029193455
000330 93 fb 52 bd 72 28 e6 3c 1e 2f 24 be 76 b6 08 be
       -0.05150945 0.028095458 -0.16033599 -0.13350853
000340 42 18 81 3d 64 36 b5 3c 0d 9b 74 bd fb 71 33 bb
       0.06303455 0.022120662 -0.05971818 -0.002738117
000350 4a 92 9b 3d da 52 1b bd 17 f8 ea bd b8 a2 1e be
       0.07596262 -0.03792081 -0.11473101 -0.1549176
000360 ef 20 df 3c 67 0f b9 bd bf e0 01 be e9 ba 2d 3d
       0.027237384 -0.09036141 -0.1268339 0.04241458
000370 13 44 b3 bd 29 6c 18 be 15 8d fc bd c6 75 09 be
       -0.087532185 -0.1488501 -0.12331597 -0.13423833
000380 19 5d 5c 3c 32 e7 a2 bd 23 ee 9c 3d 75 78 96 3d
       0.013449931 -0.07954253 0.076626085 0.07347194
000390 29 cc 3d 3c fb 99 a0 bc fa c5 80 bd 41 0a 3b bd
       0.01158432 -0.019604674 -0.06287761 -0.045664076
0003a0 eb 67 ce bd 94 21 89 bc 79 7a c6 3d 27 2d e2 bc
       -0.100784145 -0.016739644 0.096913286 -0.027609421
0003b0 31 a1 88 bd c1 a0 54 bd 94 b7 e9 3c 32 1e 21 be
       -0.0667137 -0.05191112 0.02852992 -0.15734175
0003c0 2d 7c 12 3d bf 2e e0 bd 70 d8 01 3e 65 45 c9 bd
       0.035762955 -0.10946416 0.1268022 -0.09827689
0003d0 f3 17 af 3d f5 af de bc 57 70 03 be 46 7d 64 3d
       0.0854949 -0.027183512 -0.12835823 0.055783533
0003e0 53 66 29 3d 3e ea 82 3d f1 b1 11 bc 93 c1 91 3d
       0.04135735 0.063923344 -0.008892522 0.071169995
0003f0 17 7a 49 bd a8 c6 92 bd 5b f0 dd 3d b9 3f bc bd
       -0.0491887 -0.07166797 0.1083686 -0.09191842

net.4.bias f4 [64]
000000 17 44 69 bd ea e2 58 3e c4 d1 40 3e b7 65 03 be
       -0.0569497 0.21180311 0.18830019 -0.1283177
000010 f3 b0 8a 3d e7 dd 9f bd 22 81 f5 bc 8c bd 5a 3d
       0.06772032 -0.078059964 -0.029968802 0.053403422
000020 27 4e a9 bd 42 b2 0b 3c 18 b0 d6 bd dc 27 b0 bc
       -0.082668595 0.008526387 -0.10482806 -0.021503381
000030 de 0a 1d 3e 82 4c 95 bd b6 54 6b bb e0 71 df bd
       0.15336177 -0.07289983 -0.0035908646 -0.10910392
000040 30 76 11 bd 20 24 cc 3d 70 a6 ee bd 03 39 86 3b
       -0.035513103 0.09967828 -0.11652839 0.004096152
000050 8e 40 54 3e 19 40 b0 b8 c1 5f 31 3e ab 7b 13 3e
       0.2072775 -8.404273e-05 0.17321683 0.14402644
000060 28 7b 2a 3d 18 05 a9 bc b2 fd 34 3d 90 30 4d 3e
       0.041621357 -0.020632312 0.044187255 0.20038056
000070 0a 47 8e bd 42 6c 16 be e4 8b f7 bd 31 8b 1e 3e
       -0.069471434 -0.14689735 -0.12087229 0.15482785
000080 b8 61 01 3d e4 06 0e 3e 25 e1 1e be 67 40 50 3d
       0.031587332 0.13869816 -0.15515573 0.05084267
000090 d8 7e 03 be ed ea 11 be 37 7f fd bd b4 3b 5a bd
       -0.12841356 -0.14249773 -0.1237778 -0.053279594
0000a0 36 f3 39 3e 10 67 08 be 36 f0 ee bd 9c f6 0e bc
       0.18159184 -0.13320565 -0.1166691 -0.008725788
0000b0 63 1f 0f 3e c4 ef 3f 3e f9 d2 51 bd 5d 44 1e 3e
       0.13976817 0.18743807 -0.05122659 0.15455766
0000c0 13 02 78 3d 6c c8 8a bd 92 08 58 3e 27 ef 22 3d
       0.060548853 -0.06776509 0.2109702 0.039778855
0000d0 88 27 0b bd 3c e4 4d bc 74 0b 1b 3e e3 1c 48 bd
       -0.033973247 -0.012566622 0.15141088 -0.048855674
0000e0 cb 47 f9 bd 6f 6e 9d bd 0c 99 0c be 17 91 ec bd
       -0.121718965 -0.07687079 -0.13730258 -0.11551111
0000f0 fa fd 2a bd ee 19 ea bd 85 ca a4 bd 23 fd df 3d
       -0.041746117 -0.11430727 -0.0804644 0.10936954

net.6.weight f4 [64, 64]
000000 b7 f6 68 3c af 43 ee 3d 09 f3 6a 3d fb 9a b6 bd
       0.014218978 0.11634003 0.057360683 -0.08916279
000010 15 14 b6 3d 29 73 ca 3d 12 81 ca 3b 3c 37 e5 3d
       0.08890549 0.09885246 0.006179937 0.11192176
000020 c1 94 d4 3d 80 40 00 bd b5 f5 a7 bd ed 97 06 3d
       0.10379935 -0.031311512 -0.08201162 0.03285973
000030 08 ac a3 3d 6a 74 ed 3d 23 e9 b2 3d 14 be 88 3d
       0.07991797 0.1159447 0.087358736 0.066768795
000040 f2 bf 55 3a e4 4c 0e 3d 24 11 e8 3d 02 86 23 3c
       0.0008153907 0.034741297 0.11331394 0.00998068
000050 c8 07 72 bd be 91 11 3e 42 a8 0d 3c e8 23 eb 3d
       -0.059089452 0.14215752 0.008646073 0.11481458
000060 5c 92 54 bd f4 7d b8 3d 77 34 d3 bc 03 eb 85 3d
       -0.05189739 0.09008399 -0.025781853 0.065389656
000070 35 1f e6 3d 43 0c 91 3d 4f 4c e0 3d d0 38 9e bd
       0.11236421 0.07082417 0.10952055 -0.0772568
000080 28 3b a3 3c 9d f0 bd bd 6f 7d 83 3d 1f 0a 74 bd
       0.019925669 -0.09274409 0.06420409 -0.059579965
000090 4e 46 99 bc 56 74 f0 bc 7e 0c a9 bd 3a 4f 40 bd
       -0.018710282 -0.029352348 -0.08254336 -0.046950556
0000a0 5e dd 2c bc e2 2a 79 bd 10 57 18 3e 7b 3f 3a bd
       -0.010550825 -0.06083191 0.14876962 -0.045470696
0000b0 19 ee 8a bc 4f 45 f7 3c 69 a9 ae bd 2c 27 a1 3b
       -0.016959237 0.030184416 -0.08528406 0.0049179997
0000c0 83 96 cb bd ea 78 27 3e 30 d3 28 3d 2c bb 62 3c
       -0.09940817 0.16354719 0.04121703 0.013838571
0000d0 0e ad c2 3d bb 3a 17 3e f5 21 6d bd 85 42 d2 3d
       0.09505664 0.14768498 -0.057893712 0.10266594
0000e0 9e 59 a5 bd 9d 2f b6 3d 66 3b 99 3d d5 39 d7 3c
       -0.08073734 0.088958 0.074820325 0.026272694
0000f0 8b 5e ca bd bd fd 1b bd a1 c2 9f bb c0 c0 91 bd
       -0.09881314 -0.03808378 -0.0048754965 -0.07116842
000100 63 41 82 3b 7d 9e 29 3d 8c 38 2f 3b 71 2d 20 be
       0.00397508 0.04141091 0.0026736585 -0.15642335
000110 df 2f d3 bd 4f e3 2e be 0d db 2d be 6b 5d 02 bc
       -0.10311865 -0.17078899 -0.16978092 -0.007956843
000120 33 76 f6 bd 6f 5d a0 3d e0 a0 0d be 93 e6 49 be
       -0.120342635 0.07830321 -0.138309 -0.19716863
000130 68 9e a1 3c a9 61 8f bd 69 9b a6 3d 5c 89 43 be
       0.019728854 -0.07001049 0.08135111 -0.19095367
000140 e4 1d dc bd 54 e6 c7 3d 43 f0 57 be 91 0e 40 be
       -0.10747889 0.097607285 -0.21087746 -0.18755557
000150 fe 75 c2 3d d5 96 0a 3c ba 9d 5c 3e 10 59 2b 3e
       0.094951615 0.008458813 0.21544543 0.16733193
000160 a9 bb 61 3e 4d 42 2d be 60 58 4d 3e 65 5a 82 3d
       0.22044243 -0.16919823 0.20053244 0.06364898
000170 a7 2b 4a be 67 70 17 3c 7a 75 70 bd 31 37 cd 3d
       -0.19743215 0.009243107 -0.058705784 0.100202926
000180 87 9f 19 3e 3d 80 12 3c 2b 94 ce bd bd ea 2e 3e
       0.15002261 0.008941707 -0.100868545 0.17081733
000190 67 9d 2a be 04 bc 85 bd a7 6b 5b be e3 8a 5a be
       -0.16661607 -0.06530002 -0.21427785 -0.21342044
0001a0 ad 68 0c bc 19 0f 5f be ba 56 6a bb c2 d0 b4 bd
       -0.0085698785 -0.21783103 -0.003575726 -0.0882888
0001b0 54 0c 2a 3e 8e c0 01 3e 4c 87 09 bd cf 9d d5 3c
       0.16606265 0.1267111 -0.033576295 0.026076226
0001c0 2d 96 03 3e 30 21 52 3b 57 58 60 3e 28 91 09 3e
       0.12850256 0.0032063238 0.21908699 0.13434279
0001d0 35 8f be bd c5 98 95 bb dd 35 70 3e 70 f2 2e be
       -0.09304658 -0.0045653307 0.23458047 -0.1708467
0001e0 75 f2 a2 bd 1e da b6 bd d7 4b 71 be 0a 27 a2 bd
       -0.07956401 -0.08928321 -0.23564087 -0.07917602
0001f0 e8 0f 54 be e6 54 cf bd 96 4b 5e be 5c f3 93 3d
       -0.20709193 -0.10123615 -0.21708521 0.072241515
000200 44 9b 58 3d 71 f2 7a 3d ea f4 49 3a 8c 69 9f bc
       0.052882448 0.061266366 0.00077040365 -0.019459508
000210 a4 dc 02 3c 73 c1 12 3d 58 4b b8 3d 0d 6a 89 bd
       0.007987175 0.03582902 0.08998746 -0.06709681
000220 b2 80 a6 3a f2 96 9e bd 26 fa 77 3c a6 2e 98 3d
       0.0012703149 -0.07743634 0.015135324 0.074307725
000230 98 0f 16 bd 81 6c 3d bd b5 30 8e bd d1 52 0e 3e
       -0.036635965 -0.046246056 -0.06942884 0.1389878
000240 01 41 ab bd 4b 95 f3 bc 84 70 b9 bd f6 44 bb 3c
       -0.08362008 -0.029734274 -0.09054664 0.022860032
000250 97 f4 4e 3c fa b0 cb 3d 33 0c e2 bd 13 1a 59 bc
       0.012631557 0.09945865 -0.11037483 -0.0132508455
000260 12 1d d3 bd 62 ac f3 3d 93 3f 0a bd 49 cb d9 bd
       -0.10308279 0.11898114 -0.033752035 -0.10634477
000270 93 88 9e 3d 37 ff af bd d7 24 f1 3c de 4d 07 3d
       0.07740893 -0.085936 0.029436512 0.033033244
000280 11 2b 69 3c 86 ef b8 3d 67 fa 1f 3d a3 16 e0 3d
       0.014231459 0.090300605 0.03905716 0.109418176
000290 28 7d bc 3d 8f 6d e0 3c 61 2d 84 3d ba 4e a5 3d
       0.09203559 0.027395992 0.06453968 0.080716565
0002a0 a2 ce bc bd 5d 2b 57 bd 1f d2 c8 3d dd 53 41 bd
       -0.092190996 -0.05253159 0.098057024 -0.04719912
0002b0 5b 93 a9 3d d8 e7 60 bc 88 f4 db 3c a3 73 4a bd
       0.08280059 -0.013727151 0.02685 -0.049426686
0002c0 9f 8d 08 3d 12 e5 cd 3d 03 63 cd 3d 44 8d 9c bd
       0.033338185 0.10053457 0.100286506 -0.07644132
0002d0 20 e8 50 3d 59 c2 c5 3b 53 89 cd 3d 40 fc c9 3d
       0.05100262 0.006035131 0.10035958 0.09862566
0002e0 a3 eb 03 3c c5 90 36 bb 7a 22 a8 3c a4 c5 93 bd
       0.008051786 -0.0027857285 0.020524252 -0.07215431
0002f0 f0 14 a7 3d a2 f3 73 bd 97 82 4f bd c6 ed c8 bc
       0.081582904 -0.05955852 -0.05066165 -0.024527442
000300 41 1a 32 be 6c b8 49 3e 43 29 5a 3d ac 9a 01 be
       -0.17392828 0.19699258 0.053262006 -0.12656659
000310 36 06 5b be 32 12 6d bd da 94 32 be 69 f7 47 3d
       -0.21389088 -0.05787868 -0.17439595 0.048819933
000320 cb 47 48 bd aa 1d 2b 3e 0e 48 04 be a7 81 d5 3c
       -0.048896592 0.16710535 -0.12918112 0.0260628
000330 7e b8 3f 3e d1 74 02 be dd 07 ab 3d 92 64 02 be
       0.18722722 -0.12739874 0.08351109 -0.12733677
000340 fd 02 25 be d3 38 07 3a 33 b4 07 be 32 05 13 bd
       -0.16114421 0.0005158309 -0.13252334 -0.035893627
000350 6b 66 ba 3d 80 2c 22 be ff 96 8f bc 87 81 4d 3e
       0.09101566 -0.15837288 -0.017528055 0.20068942
000360 7b 31 cf bb 6f cf 0f be b8 67 08 3d 73 d4 52 3d
       -0.006323037 -0.14043973 0.03330204 0.05147214
000370 5d 80 60 bd b0 58 ff bd 08 4b a0 bc ed 76 ad 3d
       -0.054809917 -0.12468088 -0.019567028 0.08469949
000380 8d a9 4b 3d be e2 42 3c bf 3f c4 bd ea fb 3e 3e
       0.049722243 0.01189488 -0.09582471 0.18650785
000390 01 91 18 be 85 90 3e be dc 91 e6 bc df 2c 2a be
       -0.14899065 -0.18609817 -0.028145723 -0.1661868
0003a0 c1 d8 3b 3e d0 cf 5f be 63 73 19 bd cf 84 67 bd
       0.18344404 -0.21856618 -0.037463557 -0.05652314
0003b0 64 41 5b 3e a7 25 8b 3d 69 2a 3a bd 09 03 a5 3b
       0.21411663 0.06794291 -0.0454506 0.005035762
0003c0 69 d9 f5 3d f2 39 c6 bd c2 ca 74 bc 0c 7a ef 3d
       0.12004358 -0.09679021 -0.014940919 0.116932005
0003d0 e3 0f 44 bd e4 a6 ce bc bb 50 dd bc 1c 1d 25 be
       -0.047866713 -0.025226064 -0.027016034 -0.16124386
0003e0 1b 02 d4 bc f7 24 48 bd c6 16 33 be ab f1 59 be
       -0.02587991 -0.048863377 -0.17489156 -0.21283595
0003f0 d4 95 3b be 69 50 2a bd 2e f9 0e be 95 94 e1 3b
       -0.18318874 -0.04158059 -0.13962242 0.0068841674

net.6.bias f4 [64]
000000 4e 07 8e bd 1c 06 0b 3e 0c 38 30 bd 52 32 3f 3e
       -0.06934987 0.1357655 -0.0430222 0.1867154
000010 97 e2 0c bd a0 93 30 3e 4c 8a 93 bd 90 c7 cc bd
       -0.03439578 0.17243814 -0.072041124 -0.09999001
000020 0a 40 1b 3e 0e c8 0d be 7f 22 ca 3d 8c a7 fa bc
       0.15161148 -0.13845846 0.09869861 -0.03059747
000030 2e cf c3 bd 93 f5 a8 3c da 12 83 bd 05 88 0c be
       -0.09561001 0.020624911 -0.0640008 -0.13723762
000040 af 19 14 3e e3 1b 05 be 32 72 1e bd 63 2e 81 bd
       0.14462923 -0.12998919 -0.038683124 -0.06307676
000050 bc 7c e0 bc 76 97 76 ba 05 4c 50 3e a9 83 b9 bd
       -0.027403228 -0.0009406725 0.20341499 -0.09058315
000060 6f 9f 27 3e 9e c1 35 3e 73 d6 a4 3d 94 51 56 3d
       0.16369413 0.1774964 0.080487154 0.052323893
000070 a2 b5 65 bd 54 67 ff 3d de 01 39 3e 14 8e 29 bd
       -0.05608142 0.1247088 0.18067119 -0.041395262
000080 b7 c6 f8 bd ca 7a dd bc 10 5d 13 3e 04 5a ea bd
       -0.12147277 -0.02703609 0.1439097 -0.1144295
000090 15 2f 3c 3e 39 bf 5a 3e 3b 8b d3 bd b4 7b e5 bd
       0.18377335 0.21362008 -0.103292905 -0.11205235
0000a0 84 c7 b2 bd a0 dd 68 bd fa fc 23 3d 2d e8 53 3e
       -0.08729461 -0.056851983 0.04003618 0.20694037
0000b0 62 0d 0f 3e 88 62 37 3e 93 0c 6a 3e 8c f6 11 be
       0.13969949 0.1790868 0.22856359 -0.14254206
0000c0 2b 4e 8d bd 35 a4 03 be 55 fd 02 bd bb 15 a5 b9
       -0.06899675 -0.12855609 -0.031979878 -0.00031487443
0000d0 42 54 fb bd ef 54 0a 3e a5 e8 21 3e d1 ae cc 3d
       -0.1227193 0.13508962 0.15811403 0.09994281
0000e0 2f 72 af bd d0 27 81 bd d1 32 de bc 0a c8 1a bd
       -0.08566701 -0.06306422 -0.02712384 -0.03778843
0000f0 60 96 f6 3d 42 93 47 3e ea fa e1 3d cd d5 21 3e
       0.120404005 0.19489768 0.11034186 0.15804215

net.8.weight f4 [64, 64]
000000 90 83 64 3d 35 43 e3 bc 41 b9 21 bd 3e 28 09 bd
       0.05578953 -0.027742008 -0.039483313 -0.033485644
000010 c5 2d 1a 3d f7 07 f3 3d 55 e8 ba 3d ed b1 1c 3e
       0.037641305 0.118667535 0.09126345 0.15302248
000020 8a fd 8c 3d 37 49 3a bd bd d5 44 bc ca d8 c9 3d
       0.06884296 -0.04547998 -0.01201385 0.09855802
000030 bd 18 7c bb 04 1d 65 3d 10 e1 af bd 69 c8 d4 bc
       -0.0038466894 0.055935875 -0.08587849 -0.02597447
000040 ac a1 f7 bd eb 46 42 bd 09 0c 92 3d de dd 88 bd
       -0.12091383 -0.047430914 0.07131202 -0.06682943
000050 a3 da b1 3d c1 2d 97 3d 8d 26 18 3d 6f ec 89 bd
       0.0868428 0.07381774 0.03714614 -0.06734549
000060 4b 68 e4 bd 5c 22 d0 bd 1a 94 b5 3c cc c0 5a 3d
       -0.11152705 -0.101628035 0.022165347 0.05340652
000070 8a a0 a0 3d f4 8b 03 be a5 d3 da 3c 2f ae a4 bd
       0.078431204 -0.12846357 0.026712248 -0.080410354
000080 6a bb 3d bb fe c7 c0 bd a1 d4 f1 bc 9e 7c 81 3d
       -0.0028950819 -0.094131455 -0.029520335 0.06322597
000090 4c c0 df bc 46 d8 86 bd d4 49 94 bb ac 33 9d 3d
       -0.027313374 -0.0658422 -0.0045254026 0.07675871
0000a0 b8 f3 46 3c f8 45 19 3e 6c 36 e6 3d ee ae ba bd
       0.012143068 0.14968097 0.11240849 -0.091153964
0000b0 61 75 fc 3a 67 6a da 3c 77 19 07 bc 9a 11 57 bd
       0.0019261056 0.026662065 -0.008245817 -0.05250702
0000c0 76 9c c3 3d f9 3c 43 3d 90 26 e3 3d 31 be 00 3e
       0.09551327 0.04766557 0.110913396 0.12572552
0000d0 6a c5 4b 3d 93 d9 86 bd a9 1e d1 3d 1c a5 5f bd
       0.049748816 -0.06584468 0.10210926 -0.05460082
0000e0 46 b2 0b 3b 17 38 0b 3d 83 64 16 bd 30 b8 d4 3d
       0.0021315976 0.03398904 -0.03671695 0.103866935
0000f0 14 36 51 bd 86 90 a4 bd 74 e3 cd bd 9f 2f fc bb
       -0.051076964 -0.08035378 -0.10053149 -0.0076961066
000100 c1 cf 21 be d0 9f c5 3d 22 b2 cf bd d8 06 6a 3e
       -0.15801908 0.096496224 -0.10141398 0.22854173
000110 71 eb 85 bd 01 9b 9f bb e4 fa 04 bc f4 8d a8 bd
       -0.065390475 -0.004870773 -0.008116458 -0.082302004
000120 e3 f8 35 3e fb 66 49 be 6a e8 08 3c 72 ef 41 be
       0.17770724 -0.1966819 0.008356193 -0.18938997
000130 7e ff 47 be d9 4e fa bd ae dd 43 be 00 4f 28 be
       -0.19531056 -0.1222207 -0.19127533 -0.16436386
000140 6c 5e 06 3e 32 68 a7 bd 6f a8 13 3c 84 ea 56 be
       0.13121957 -0.081741706 0.009012326 -0.20987898
000150 44 a9 33 bd 56 51 84 bd 9f 69 50 3e 3f 61 69 be
       -0.043862596 -0.06460826 0.20352791 -0.22791003
000160 e5 73 02 3e df 98 0b 3e 24 62 70 bd 71 a6 c7 3d
       0.12739523 0.13632534 -0.058687344 0.09748543
000170 8e e1 e2 bd 13 13 0c 3e c6 7b de 3c d1 8d 45 3e
       -0.110781774 0.13679151 0.02715863 0.1929238
000180 12 6e 3c be ca c5 19 3b d0 2c 69 3e df 9a 5c be
       -0.18401363 0.0023463839 0.22771001 -0.21543454
000190 aa 85 05 3e 5b dd 73 3e b1 ea 1b be 6f 48 42 be
       0.1303927 0.23814909 -0.15226246 -0.18972944
0001a0 26 8d ff bc a5 8c b9 bc e5 4f 2f bd 4c 3f 4f 3e
       -0.031195235 -0.022650072 -0.042800803 0.2023899
0001b0 4f 92 21 3e 87 46 50 3e 8f 60 10 3e 3c 1e 85 bc
       0.15778469 0.20339404 0.14099334 -0.016249768
0001c0 36 2f d4 bc ae 4a bc bd fd b0 04 be 5b 4d b4 bd
       -0.025901418 -0.091939315 -0.1295814 -0.08803817
0001d0 9a c9 a0 bd bf 41 5e 3d 76 2d 63 3e 08 68 5c 3d
       -0.078509524 0.05426192 0.2218531 0.05381015
0001e0 58 be ae bd 62 cc 43 3c 3a 0a 3f be 96 16 93 bd
       -0.08532399 0.011950584 -0.18656245 -0.07182042
0001f0 e0 e1 32 3d 01 0d 9d 3d b1 30 00 bc df 91 32 3e
       0.043672442 0.07668496 -0.007824109 0.17438458
000200 b3 8f c8 bd a2 7b 42 3e 5a 36 57 3c 76 60 2c 3e
       -0.097930335 0.18992475 0.013135517 0.16833672
000210 18 06 11 be b8 7a 3f 3d e4 69 5a bc 76 41 5c be
       -0.14162481 0.046747893 -0.01333091 -0.21509346
000220 f8 d7 5b 3e 4b 16 4b be 94 b7 33 3d 66 b1 32 be
       0.21469104 -0.19832723 0.043876246 -0.17450485
000230 f1 17 2b bd f6 d2 3b be fa 31 3c be 83 dd 58 be
       -0.04177088 -0.18342194 -0.1837844 -0.2117825
000240 04 ee 37 3d 47 ac 12 be 40 f4 e1 bd d7 22 db bd
       0.044904724 -0.14323531 -0.11032915 -0.107000045
000250 af 3f 24 3d 48 3b c9 bd 6d 46 d1 3d 6a 9a 08 be
       0.040099796 -0.0982576 0.10218511 -0.13340154
000260 08 09 1c 3e 02 53 9b 3d 71 b0 71 3d 42 a2 89 bc
       0.1523782 0.07584192 0.05900616 -0.016801003
000270 cd 75 d5 3c 06 36 37 3e d7 ec 1c 3c ae 79 3c 3e
       0.026057148 0.17891702 0.009577951 0.18405792
000280 d3 e7 06 be cf 36 3a be 08 f9 a9 3d 46 22 0c be
       -0.13174371 -0.1818497 0.08299452 -0.1368495
000290 67 60 73 3d a1 c9 e0 3d 0b 31 2f be 9a 7d bc bd
       0.05941811 0.10975958 -0.17108552 -0.09203644
0002a0 59 1d 04 be e9 12 37 be e4 b6 33 be df 70 0b 3e
       -0.1290182 -0.17878307 -0.17550236 0.13617276
0002b0 c3 81 91 3c b8 2e 45 3e 09 1c 1c 3e 40 97 b8 3c
       0.01776207 0.19256103 0.1524507 0.02253306
0002c0 e8 8b ec bd 25 bf 21 be 92 4c b8 bd f9 3d 7d bd
       -0.115501225 -0.15795572 -0.0899898 -0.06182668
0002d0 81 35 18 be 53 25 3c 3e 3d 7f d6 3d 0a ac 3a 3e
       -0.1486416 0.18373613 0.104734875 0.1822969
0002e0 9a 32 f7 bd 3e 85 3c be 81 39 11 be 13 63 59 bd
       -0.12070198 -0.18410203 -0.14182092 -0.053073
0002f0 c4 63 26 3d b8 7b 13 3e 9e d9 19 3e c8 04 4b 3e
       0.040622488 0.14402664 0.1502442 0.19826043
000300 79 79 96 bc 30 94 1b bc eb 4d dd bd 4a 27 2d 3d
       -0.01836847 -0.00949578 -0.10805877 0.042273797
000310 69 53 57 bd 2f 1b 55 3e fc fc 5e be 2f 52 fa bd
       -0.05256978 0.20811151 -0.21776193 -0.122227065
000320 91 1e 16 3e f6 32 e4 bc 4d a7 0f 3e af 20 33 bd
       0.14660098 -0.027856331 0.14028664 -0.04373234
000330 ad 4b 55 be 90 2c 45 be 09 ff 2b be 2f 85 c4 bd
       -0.2082965 -0.1925528 -0.16796507 -0.09595715
000340 1c 54 9d 3d 5e 87 e5 3a 5c ee ff bc 44 ba e3 bc
       0.07682058 0.0017511656 -0.031241588 -0.02779878
000350 c4 e1 80 3c 4a 70 2d be 47 3b 75 3d af 75 5a be
       0.015732653 -0.16937366 0.059870984 -0.21333955
000360 28 23 28 3e 84 f2 12 3e 05 40 c9 3c 55 c4 01 3e
       0.16419661 0.14350325 0.02456666 0.12672551
000370 12 1d 96 3c d0 a6 20 3e 5f 20 7f 3d 0e c8 8c 3c
       0.018324409 0.15688634 0.06228673 0.017185237
000380 81 08 b1 3c f1 b4 d9 bd c2 02 95 3d cf eb 3c be
       0.0216105 -0.10630215 0.07275917 -0.18449329
000390 b4 a3 f6 3c 63 b0 7c 3d b5 9d 45 bd 33 71 9a bd
       0.030107357 0.061691653 -0.048246104 -0.07541122
0003a0 0f 94 5d bd 34 ce 3a be 81 13 11 be 86 1f 9f 3d
       -0.054096278 -0.18242723 -0.14167596 0.077696845
0003b0 5b 40 17 3e 35 43 4c 3e 40 22 34 3c 0a 2a 70 3c
       0.14770643 0.19947512 0.010994494 0.01465846
0003c0 39 97 52 3c 73 28 7b 3c 9e 72 08 be 89 f9 ed bd
       0.012853437 0.015329468 -0.13324973 -0.11619861
0003d0 3a 12 10 be e1 c8 1a 3e ca 9f 0a 3e 98 b2 81 3d
       -0.14069453 0.15115692 0.13537517 0.06332892
0003e0 51 be 32 bc 4a a9 95 bd 4f 7d b8 bc b1 49 02 be
       -0.010909633 -0.0730768 -0.02252069 -0.12723424
0003f0 e7 87 54 3e 07 28 f4 3d 19 5a 78 3d 21 7a 98 3d
       0.20754968 0.11921697 0.0606328 0.07445169

net.8.bias f4 [64]
000000 5c 65 6e 3d e0 29 b7 3c fd e8 46 3e 5d 10 13 3e
       0.058202133 0.022358835 0.19424815 0.14361711
000010 dc 09 d6 3d 0f 18 38 3e 59 22 a7 3d bd 46 8d 3d
       0.10451099 0.17977928 0.08160848 0.06898258
000020 56 4d 4f 3e a8 ad 13 3d 97 96 94 bc 68 4e 53 3d
       0.20244345 0.036054283 -0.018138213 0.051588446
000030 78 2a 76 bd d7 1b 67 bc d8 fb 41 3e 5e 47 77 3d
       -0.060099095 -0.014105759 0.18943727 0.060370795
000040 d1 94 11 3d d5 bd 17 3e 9c 05 8f bc 2c 63 1d 3c
       0.035542313 0.14818509 -0.01745873 0.009606164
000050 aa 9d a9 3d ab c3 94 bd f8 a7 96 3d b1 76 97 3d
       0.08282025 -0.07263883 0.07356256 0.073956855
000060 aa f8 a1 bd b2 b0 26 bd 4e 51 ce bc 07 2a a1 3c
       -0.07908757 -0.040695854 -0.025185253 0.01967336
000070 63 72 1f 3c e0 80 58 3c 96 a0 22 3e 1a 24 25 3e
       0.009731862 0.01321432 0.15881571 0.16127053
000080 8f e4 b0 3d 4e 25 a1 3d 18 db 9b 3d d6 cc d9 bd
       0.08637344 0.078684434 0.07610148 -0.106347725
000090 1b a0 d0 bd 01 ba 27 bd 16 04 cc 3d e5 6e b5 3c
       -0.10186788 -0.04094887 0.09961717 0.022147605
0000a0 42 4d 49 3e 8a 7d 42 3d 8d 63 75 3d 1a 3e b1 bd
       0.19658378 0.047483005 0.059909392 -0.08654423
0000b0 78 65 8c 3d ea 7f 83 bc fa 59 18 be 7e 83 e5 3d
       0.06855291 -0.016052205 -0.14878073 0.11206721
0000c0 dd 6b 23 bc cb cb 68 3a 8f 61 b1 3c 67 f0 83 3d
       -0.009974447 0.0008880465 0.021652965 0.064423375
0000d0 7e cd d7 3d 2b 09 ee bd 66 3f 28 3e b0 d3 b3 bc
       0.105372414 -0.116228424 0.16430435 -0.021951526
0000e0 cc 23 d8 bd a0 b4 cd bd b1 db 37 3e aa a4 0f 3e
       -0.10553703 -0.10044217 0.179549 0.14027658
0000f0 97 75 ed bd 93 bc 62 3c e8 dc 8f 3d 22 0e 23 bc
       -0.11594694 0.013838905 0.070245564 -0.0099521

net.10.weight f4 [1, 64]
000000 5d 32 07 be 68 f6 28 3e 24 b1 6b 3e 36 ec 05 3e
       -0.13202806 0.16500247 0.23016793 0.13078389
000010 60 34 53 3e 04 18 44 3e 0b 8c 49 3e a6 bc 85 bd
       0.20625448 0.19149786 0.19682328 -0.065301225
000020 46 43 dc 3d db 8a 16 be 43 1d 2b 3e 39 80 50 3e
       0.10755019 -0.14701407 0.16710381 0.20361413
000030 ee b5 cc bd e8 be 14 3e b2 a6 fb 3d b7 6e 03 be
       -0.09995638 0.1452595 0.12287654 -0.12835203
000040 b5 42 6c bd fa 32 4a 3e ff 34 4e 3e 9d 2e cb 3d
       -0.057680804 0.19746009 0.20137404 0.09921
000050 da a7 a0 bd d4 91 98 bd ab e9 ee bd b7 ba 77 bd
       -0.07844515 -0.074496895 -0.116656624 -0.0604808
000060 28 b3 b5 bd cd 55 7d 3d 3e 51 12 3e 0d 82 2f 3e
       -0.08872062 0.061849404 0.14288804 0.17139454
000070 5d 18 38 3e 79 b1 2a be 7b 83 18 3e 12 2c f1 3d
       0.17978044 -0.16669263 0.14893906 0.11775984
000080 a1 58 1d 3e bc c3 53 3e a3 57 d3 3d 0c 6f a9 bd
       0.1536584 0.20680135 0.1031945 -0.08273134
000090 88 c9 39 be cd c4 fa bd ac 1d 4f 3e 14 fd e0 3d
       -0.18143284 -0.12244568 0.20226163 0.10985771
0000a0 00 9d 56 3e b6 e1 92 bd 2d 27 10 3e b2 d7 0e be
       0.20958328 -0.07171957 0.14077444 -0.13949469
0000b0 0a 0d 02 3e c3 f5 7b bd a5 8d c9 bd b3 0c 5b 3e
       0.12700287 -0.061513674 -0.0984147 0.21391563
0000c0 09 19 1d 3e 99 17 aa bd e1 88 10 3e ef 25 a0 bd
       0.15341581 -0.08305282 0.14114715 -0.07819735
0000d0 5f c4 5f 3e 23 ba e3 bd d5 08 fd 3d c7 1e 26 be
       0.21852253 -0.11119487 0.123552 -0.16222678
0000e0 52 bb 15 be e0 f3 a1 bd de 1c e2 3d 60 49 1a 3e
       -0.14622238 -0.079078436 0.11040662 0.15067053
0000f0 81 ab 25 be 43 b7 ec 3d 6c 3c 3d 3e 7a 47 20 be
       -0.16178705 0.11558392 0.1848008 -0.15652266
